pytorch/lending_club_pytorch.pt (torch, 62819 bytes, 9 tensors)

0.weight f4 [75, 149]
0.5613265 0.89181185 -0.28373876 0.1968815 0.8766979 -3.592291 -0.5383896 0.011578521
1.3920614 -1.4132642 -0.45598802 0.7341044 0.2163535 -0.19688816 -0.102987 0.34457457
0.28248075 0.12991108 0.052055076 -0.36681753 -0.31435606 0.40049177 -0.099492006 0.4062477
-0.36705062 -0.959172 0.39192775 0.19959265 0.10063255 -0.29859436 -0.66253847 -0.7595087
0.6760678 0.3490804 0.41349047 -0.6571 -0.82174385 0.36078322 0.65632576 -0.8042537
-0.66621983 -1.1598637 -0.92476046 -0.016687494 -0.9941972 -0.4387096 -1.7875959 0.14516567
-0.5891455 -0.23901781 -0.00852511 0.16967656 0.10087163 0.00445841 0.019707859 -0.23056251
0.2034916 1.1649028 0.3188949 -0.2455273 0.007764824 0.07011285 -0.25737035 -0.6910333
-0.10578237 -0.055795263 0.165369 2.0577662 -0.31324136 0.59090745 -0.46429795 0.18033315
-0.15005009 -0.2026213 0.2182127 -0.59267265 -0.34045643 -0.5270524 -0.26578134 -0.41603646
0.84170085 0.28082123 0.44833487 -0.5549633 1.0034969 0.96787745 0.48545694 0.08970509
1.6622516 -0.24965613 0.3046306 -0.23845296 -0.06250064 0.081717536 0.6196553 0.05988661
-0.09594111 -0.014161182 0.5801026 0.07171366 -0.5619984 -8.110376e-05 -0.94688964 0.4542709
-1.3529319 0.5346355 -1.0854212 -0.63582706 0.13867113 -0.10888603 0.9355182 -1.1561588
-1.4273478 -0.7117759 -0.014821184 -0.77422065 -0.6555231 -0.2612416 0.2841366 -0.25935015
-0.03284757 0.3444993 -0.4332323 -0.887729 0.6787914 0.49620655 1.1393363 0.60251033
0.09633274 0.20246038 -0.5527963 -0.73416746 0.6704572 -0.15393013 -0.1687339 -0.46780193
0.50461 -0.07990531 -0.28537327 0.5315041 -0.028052324 -1.1872355 -0.3543121 -0.1285109
-0.49069604 0.15943322 0.47027147 -0.3865883 0.34508836 0.28276813 0.15350145 -0.79924494
0.2359667 3.6319265 -4.365124 -1.1355687 -1.1049602 0.85565126 -2.2837086 0.21439004
0.5971444 0.1840925 0.041598707 -0.16615325 0.05249449 0.011309769 0.40558022 -0.42808694
-0.46588984 -0.66877323 0.19888669 -0.08424246 -0.20598161 -0.3404517 -0.13190557 0.015562897
-0.5218903 -0.7310188 -0.8332586 -0.6262902 -0.3810865 -1.211726 -0.82700974 -0.21106444
-0.73736376 -0.51539093 -0.58913666 0.10224171 -0.4361744 -0.545638 -1.8040196 -0.3290152
0.6926859 -1.0014783 -0.5605533 -1.7996157 0.57952785 0.26700616 -0.23608376 0.23568484
0.9385529 0.23223901 0.045362502 0.0039390884 0.19973569 0.014514041 0.23200071 0.48080328
0.006507433 -0.22452296 0.048931535 -0.5487179 -0.049260084 -0.18333916 -0.53135186 0.44281167
0.45606542 -0.8493286 -0.5956244 0.17511047 0.13298841 -0.17367628 -0.0764903 0.23654987
0.20453197 0.20858872 -0.48953283 -0.43719962 -0.40785655 0.32863852 -0.17015019 0.050214503
0.626588 0.19070461 0.10471338 -0.8705038 0.477926 0.6585137 0.56647444 0.50075895
-0.7399569 0.09558224 -0.013021275 0.3402728 -0.07632958 -0.56065696 -0.3583921 0.5490042
0.37113914 0.48863176 -0.05683435 -1.0243143 -0.59360546 -0.27216637 1.1324681 -0.63956016
00000000: 18b3 0f3f c84d 643f 3546 91be 4e9b 493e
00000010: 466f 603f 19e8 65c0 e7d3 09bf d6b3 3d3c
00000020: 112f b23f d7e5 b4bf 4377 e9be 44ee 3b3f
00000030: c68b 5d3e 0d9d 49be d9ea d2bd 146c b03e
00000040: 51a1 903e 6907 053e b437 553d 82cf bbbe
00000050: 47f3 a0be 420d cd3e 77c2 cbbd b3ff cf3e
00000060: 0fee bbbe 4c8c 75bf c1aa c83e 0462 4c3e
00000070: 7018 ce3d 5ce1 98be 1f9c 29bf 2a6f 42bf
00000080: c812 2d3f abba b23e 06b5 d33e b537 28bf
00000090: ce5d 52bf 94b8 b83e f704 283f 92e3 4dbf
000000a0: 628d 2abf 6a76 94bf 1abd 6cbf 36b4 88bc
000000b0: b583 7ebf 8b9e e0be f1cf e4bf 4fa6 143e
000000c0: 3dd2 16bf 16c1 74be e7ac 0bbc b1bf 2d3e
000000d0: c995 ce3d db17 923b 6072 a13c 9418 6cbe
000000e0: 1a60 503e 891b 953f 3146 a33e 826b 7bbe
000000f0: 1170 fe3b 5397 8f3d 0cc6 83be 8fe7 30bf
00000100: 6da4 d8bd 9389 64bd 7e56 293e 71b2 0340
00000110: 2c61 a0be b645 173f 76b8 edbe 41a9 383e
00000120: bba6 19be f57b 4fbe 2673 5f3e 65b9 17bf
00000130: 4e50 aebe e8ec 06bf 7e14 88be bb02 d5be
00000140: b579 573f cdc7 8f3e 268c e53e 1312 0ebf
00000150: 9672 803f d1c6 773f d08d f83e 4db7 b73d
00000160: a9c4 d43f dba5 7fbe 8bf8 9b3e 032d 74be
00000170: 5600 80bd 865b a73d bba1 1e3f a94b 753d
00000180: c67c c4bd 4d04 68bc 9b81 143f 9dde 923d
00000190: 21df 0fbf 4016 aab8 5c67 72bf 3296 e83e
000001a0: df2c adbf dfdd 083f 15ef 8abf 90c5 22bf
000001b0: ceff 0d3e a4ff debd 1f7e 6f3f 03fd 93bf
000001c0: 55b3 b6bf f236 36bf 8dd4 72bc 5333 46bf
000001d0: 5dd0 27bf 76c1 85be 5a7a 913e 8bc9 84be
000001e0: 2c8b 06bd 3662 b03e a0d0 ddbe 3542 63bf
000001f0: 46c5 2d3f c90e fe3e c6d5 913f 1e3e 1a3f
00000200: 194a c53d c651 4f3e 0f84 0dbf 66f2 3bbf
00000210: 15a3 2b3f dc9f 1dbe 94c8 2cbe bc83 efbe
00000220: 1f2e 013f 65a5 a3bd 721c 92be a710 083f
00000230: fdcd e5bc 55f7 97bf 6568 b5be 5d98 03be
00000240: 833c fbbe 7642 233e 6cc7 f03e e7ee c5be
00000250: 6caf b03e fcc6 903e 7c2f 1d3e 519b 4cbf
00000260: 41a1 713e 7c71 6840 19af 8bc0 515a 91bf
00000270: 566f 8dbf f60b 5b3f 4828 12c0 1089 5b3e
00000280: 75de 183f bf82 3c3e 6863 2a3d 1424 2abe
00000290: 7604 573d 9c4c 393c 36a8 cf3e 362e dbbe
000002a0: 1d89 eebe b934 2bbf f4a8 4b3e 5087 acbd
000002b0: d8ec 52be af4f aebe 4112 07be 85fb 7e3c
000002c0: 9a9a 05bf 0c24 3bbf 7050 55bf 8e54 20bf
000002d0: c51d c3be d619 9bbf e9b6 53bf 4721 58be
000002e0: dfc3 3cbf a9f0 03bf a9d1 16bf 1a64 d13d
000002f0: 4052 dfbe efae 0bbf 1dea e6bf ae74 a8be
00000300: dd53 313f 7130 80bf 6c80 0fbf cf59 e6bf
00000310: f05b 143f 08b5 883e f1bf 71be 5e57 713e
00000320: 0145 703f 10d0 6d3e 08ce 393d 7813 813b
00000330: 8387 4c3e 4dcc 6d3c 9891 6d3e d92b f63e
00000340: 4e3c d53b 59e9 65be 6f6c 483d c778 0cbf
00000350: f1c4 49bd 43bd 3bbe ad06 08bf 36b8 e23e
00000360: 6881 e93e 996d 59bf d77a 18bf 2950 333e
00000370: 1d2e 083e 32d8 31be f2a6 9cbd 213a 723e
00000380: d470 513e 4898 553e 0ca4 fabe a1d8 dfbe
00000390: 93d2 d0be 4f43 a83e da3b 2ebe b9ad 4d3d
000003a0: 1268 203f 1248 433e f873 d63d 56d9 5ebf
000003b0: b7b2 f43e 5b94 283f 7804 113f bd31 003f
000003c0: d16d 3dbf 9fc0 c33d 3057 55bc 3d38 ae3e
000003d0: af52 9cbd 3787 0fbf 2b7f b7be 8a8b 0c3f
000003e0: f305 be3e f12d fa3e 23cb 68bd bb1c 83bf
000003f0: 87f6 17bf 6459 8bbe b7f4 903f 37ba 23bf

0.bias f4 [75]
0.16701983 0.14015304 -0.12511776 -0.26593986 -0.16826606 -0.117229976 -0.15462944 0.10370244
-0.15899639 0.038417157 -0.10787889 -0.019995531 -0.012118064 -0.111496225 0.04319934 -0.010409124
-0.077746965 -0.11552863 0.342131 -0.07519667 -0.23173885 0.21618494 -0.2270272 0.2844388
-0.065129586 0.31266358 -0.25107333 -0.22154276 -0.1538048 0.2334393 -0.15770893 0.066424794
-0.26009306 -0.081924155 -0.104900345 0.21981575 -0.09073257 -0.26912683 -0.058022838 0.23548763
0.36756995 0.28262627 -0.23024864 -0.20081732 -0.17566398 0.14636584 -0.073945306 -0.21367267
0.3292801 0.26798138 -0.08073449 -0.24969718 -0.24530038 -0.15842251 -0.1521499 0.23397793
0.4750617 0.029913647 -0.18922484 -0.07737235 0.24168186 -0.06519537 -0.2120182 -0.1646911
-0.1648613 -0.22933188 -0.028969783 0.18181431 -0.2232298 -0.14531921 0.021917382 -0.2821734
-0.07042039 -0.22979452 -0.10118685
00000000: 3f07 2b3e 4784 0f3e df1e 00be 4529 88be
00000010: f04d 2cbe 4516 f0bd 2e57 1ebe f261 d43d
00000020: f3cf 22be 4f5b 1d3d 9cef dcbd abcd a3bc
00000030: d88a 46bc 2258 e4bd cbf1 303d 088b 2abc
00000040: cd39 9fbd 469a ecbd cb2b af3e b600 9abd
00000050: f34c 6dbe 965f 5d3e d179 68be f6a1 913e
00000060: a962 85bd 7115 a03e af8c 80be 1bdc 62be
00000070: 017f 1dbe b60a 6f3e 737e 21be b909 883d
00000080: eb2a 85be dac7 a7bd fed5 d6bd 6117 613e
00000090: ffd1 b9bd feca 89be 5ba9 6dbd ab23 713e
000000a0: 2132 bc3e 64b4 903e 4dc6 6bbe 0ea3 4dbe
000000b0: 42e1 33be ede0 153e a370 97bd 02cd 5abe
000000c0: 6797 a83e db34 893e 2058 a5bd 9eb0 7fbe
000000d0: 0630 7bbe 8339 22be 2fcd 1bbe e997 6f3e
000000e0: 4a3b f33e 770d f53c 28c4 41be 6575 9ebd
000000f0: 737b 773e 2685 85bd 4d1b 59be c9a4 28be
00000100: 67d1 28be fad5 6abe 0a52 edbc 882d 3a3e
00000110: 5a96 64be 8fce 14be 158c b33c 0879 90be
00000120: 9138 90bd 414f 6bbe 0d3b cfbd

1.weight f4 [75]
1.1484894 1.1895401 0.9163417 0.888816 0.67574203 0.8480572 0.73294276 0.8154548
0.21498026 0.68915784 0.34375805 1.0635623 0.9786395 0.96830326 0.21626389 0.86518943
0.8099412 0.64077497 0.98674977 0.2378886 1.1931267 0.8941327 0.41468713 1.1671059
1.418075 1.1307511 1.0597667 0.853362 0.6375022 0.98987395 0.6723137 1.1633679
0.83115715 0.4714824 0.16582042 1.467946 0.27755845 0.922901 0.1524825 0.95274985
1.0544883 0.9267978 0.9505777 0.9200727 0.94264627 0.76257926 0.78180635 0.4383442
1.0241542 0.968445 0.3619426 1.1570421 2.8536794 0.16975427 0.82510364 1.1486294
1.2429466 0.62463135 1.088536 0.63547283 0.9926045 0.36232075 1.0954962 0.8652416
0.7944615 1.1719189 0.8273801 1.2234702 0.3115686 0.4157915 0.34754047 1.2040598
0.8213948 0.83963597 0.24352008
00000000: b301 933f da42 983f 5f95 6a3f 7289 633f
00000010: 6efd 2c3f 471a 593f 23a2 3b3f a5c1 503f
00000020: c923 5c3e a66c 303f 0e01 b03e cf22 883f
00000030: 1e88 7a3f b9e2 773f 4874 5d3e 0e7d 5d3f
00000040: 4e58 4f3f d409 243f a29b 7c3f 1299 733e
00000050: 60b8 983f e1e5 643f df51 d43e ba63 953f
00000060: 7b83 b53f 74bc 903f 6fa6 873f ef75 5a3f
00000070: 5833 233f 6168 7d3f c01c 2c3f 3de9 943f
00000080: b7c6 543f 2466 f13e d4cc 293e a8e5 bb3f
00000090: 241c 8e3e 3d43 6c3f 5f24 1c3e 6ae7 733f
000000a0: 79f9 863f 9f42 6d3f 0f59 733f e289 6b3f
000000b0: 4451 713f 6538 433f 7624 483f a76e e03e
000000c0: 7c17 833f 03ec 773f 8a50 b93e f519 943f
000000d0: afa2 3640 10d4 2d3e fe39 533f 4a06 933f
000000e0: e018 9f3f d7e7 1f3f 2655 8b3f 59ae 223f
000000f0: 541b 7e3f 1b82 b93e 3839 8c3f 7980 5d3f
00000100: d461 4b3f 7001 963f 2fcf 533f ac9a 9c3f
00000110: eb85 9f3e a0e2 d43e d3f0 b13e a21e 9a3f
00000120: ee46 523f 62f2 563f 545d 793e

1.bias f4 [75]
-0.35017014 -0.27311948 -0.7319688 -0.10618967 -0.5071098 -0.49826294 -0.5855174 -0.90562576
-0.61165166 -0.5634467 -0.65400624 -0.1432113 -0.45118994 -0.06268994 -0.712006 -0.83582866
-0.30478555 -0.34795544 -0.06927296 -0.7171975 0.036772706 -0.07873767 -0.36113784 -0.21391344
-0.1618985 -0.38999248 0.06334099 -0.22241154 -0.79916906 -0.09382809 -0.56452006 -0.16189387
-0.04172348 -0.6529205 -0.63398093 -0.39674464 -0.7296461 0.044330645 -0.48947862 -0.061614357
-0.10031429 -0.05867719 -0.12882765 -0.009071898 -0.459899 -0.19956715 -0.45535102 -0.6644316
-0.07003152 -0.09078791 -0.8549643 -0.2739041 -0.18831952 -0.59938526 -0.4606859 -0.10899476
-0.07775185 -0.8706902 -0.028056616 -0.6772287 -0.103278 -0.71972615 -0.1250425 -0.18303087
-0.1713157 -0.2975991 -0.72557455 -0.13435136 -0.5356209 -0.8197231 -0.88590163 -0.5415755
-0.25565222 -0.037127063 -0.66166675
00000000: 8049 b3be 51d6 8bbe 4f62 3bbf f879 d9bd
00000010: f3d1 01bf 521c ffbe 78e4 15bf 17d7 67bf
00000020: 3495 1cbf 0b3e 10bf f46c 27bf fca5 12be
00000030: 5e02 e7be 9563 80bd 0646 36bf def8 55bf
00000040: da0c 9cbe 3727 b2be fbde 8dbd 419a 37bf
00000050: fa9e 163d 3741 a1bd 0fe7 b8be 200c 5bbe
00000060: b8c8 25be 18ad c7be ecb8 813d dabf 63be
00000070: 5896 4cbf f128 c0bd 6384 10bf 82c7 25be
00000080: 3de6 2abd cc25 27bf 934c 22bf 1d22 cbbe
00000090: 16ca 3abf 0d94 353d f19c fabe 565f 7cbd
000000a0: 9471 cdbd 7e57 70bd 65eb 03be 4ca2 14bc
000000b0: e277 ebbe 555b 4cbe c523 e9be 3018 2abf
000000c0: b06c 8fbd 03ef b9bd f1de 5abf 283d 8cbe
000000d0: d5d6 40be 5071 19bf 06df ebbe a538 dfbd
000000e0: 5d3c 9fbd 8ee5 5ebf fdd6 e5bc dc5e 2dbf
000000f0: 6b83 d3bd f93f 38bf 240b 00be 726c 3bbe
00000100: 626d 2fbe e95e 98be 41bf 39bf 6793 09be
00000110: 741e 09bf 60d9 51bf 73ca 62bf b1a4 0abf
00000120: d9e4 82be 8c12 18bd fe62 29bf

3.weight f4 [37, 75]
0.1582909 0.18923753 -0.02213505 -0.55109346 0.12808432 0.06174221 0.30850446 1.0257986
0.076549225 0.7533418 -0.03351503 -0.21069288 0.08557351 -0.021743983 -0.25872892 -0.05793276
0.012506003 -0.27773577 0.15818408 0.07547204 -0.28032285 0.024221696 -0.25710696 0.2254037
0.014864948 -0.21783918 -0.33213714 -0.17563394 -0.23785679 0.037833147 0.020707827 -0.008882618
-0.25810906 0.223078 0.06500209 0.12398429 0.012602469 -0.34147125 0.02077443 -0.053364966
0.01711838 -0.06711617 -0.4104434 -0.3031552 0.026185935 0.18689626 0.35941568 -0.03144249
0.19660413 0.002436962 0.08149574 0.1779328 -0.4599184 0.012080138 -0.4026958 0.3259479
0.48187414 -0.052747197 -0.5056532 0.10714188 0.22164887 -0.022838926 -0.52418077 -0.29295358
-0.20729503 -0.17515051 -0.036121305 0.34361792 -0.1865513 0.22034359 0.33577693 -0.12876531
-0.3046991 -0.37739348 0.17726304 -0.17419246 0.0153492605 0.036672566 -0.13430493 -0.03708769
-0.019088922 0.022733219 -0.005003193 -0.0034512659 -0.08023498 -0.14543574 -0.032500267 -0.017208192
-0.06626663 0.031026302 -0.120609924 -0.01574369 -0.09422732 0.021683652 0.05456853 -0.02605824
-0.16555738 -0.026020866 -0.0816434 0.03381438 -0.049784224 0.047969226 -0.17009772 -0.022003261
0.03904118 -0.11585137 -0.045132145 -0.08004372 -0.082823776 -0.07606625 -0.12793064 0.03460303
-0.16836262 -0.1395099 -0.060284946 0.04643555 -0.17282715 -0.0979414 0.002165823 -0.04528906
-0.17090641 -0.10183715 -0.03179432 -0.108030885 -0.10748989 -0.04335707 0.032769244 -0.0076086833
-0.12899598 -0.03541183 0.077755205 -0.10828423 0.046880882 -0.0060367202 -0.094834186 0.046728306
-0.023984443 -0.14727654 -0.15029478 -0.045656305 -0.14932756 0.014323327 0.038309433 -0.111258745
-0.17327374 -0.060684353 -0.1486079 -0.089524865 -0.061446756 -0.06740303 0.2540546 0.298231
-0.16595592 -0.8212779 -0.4471826 -0.036257625 0.19851182 0.9634561 -0.011224825 0.88745606
-0.030558428 -0.5722978 0.046058927 -0.15094742 -0.57278335 -0.13738811 0.13835116 -0.059023272
0.12555094 -0.0029183086 -0.47488332 0.05168438 -0.123865984 0.36842537 -0.47887692 0.024375435
-0.5941657 -0.45359984 -0.05374011 -0.022712426 0.021126186 0.24849336 -0.15267718 0.048068997
-0.04997882 0.46471626 0.09602494 -0.5270855 0.16516714 -0.22866818 0.108011276 -0.011246136
-0.6061242 -0.67488605 0.028188271 0.28443152 0.09408105 0.2097236 0.20404743 -0.021226976
0.028603764 0.13848366 -0.15605788 0.056117103 -0.5090578 0.38305193 0.33268324 0.07405786
-0.7594402 0.038433574 0.08044265 0.070779845 -0.6987141 -0.24981204 -0.6795202 0.12241512
-0.17706773 0.31110725 -0.00090328377 0.159034 0.19904126 -0.017178096 -0.19934218 -0.44481406
0.22451444 -0.010508613 -0.03776264 -0.15670134 -0.6468399 0.54754376 -0.09144809 -0.111831754
0.6591908 0.049915757 -0.01433331 0.46544465 -0.35602057 -0.09076703 -1.0032133 0.7640167
0.36607534 0.25618625 -0.23820731 -0.17575915 0.24582028 -1.1498361 0.36920533 -0.4049597
0.31838745 0.29143527 0.8765437 -0.9213424 -0.397595 0.09222158 -0.07456072 -0.43591356
00000000: 0217 223e 7cc7 413e 9054 b5bc 7614 0dbf
00000010: 8928 033e 66e5 7c3d 4cf4 9d3e 5e4d 833f
00000020: d7c5 9c3d 02db 403f 0e47 09bd e0bf 57be
00000030: 2a41 af3d 7020 b2bc 1e78 84be e74a 6dbd
00000040: fae5 4c3c 6233 8ebe 02fb 213e 1691 9a3d
00000050: 7a86 8fbe 946c c63c 86a3 83be 3ad0 663e
00000060: 1c8c 733c 3c11 5fbe e10d aabe 62d9 33be
00000070: bb90 73be eef6 1a3d 76a3 a93c 6688 11bc
00000080: df26 84be 8f6e 643e d11f 853d 7aeb fd3d
00000090: 967a 4e3c 52d5 aebe 232f aa3c 3995 5abd
000000a0: d83b 8c3c 3474 89bd a325 d2be 2937 9bbe
000000b0: e383 d63c bc61 3f3e 5505 b83e d7c9 00bd
000000c0: 9852 493e 70b5 1f3b 3de7 a63d 0434 363e
000000d0: 6d7a ebbe c5eb 453c 252e cebe a5e2 a63e
000000e0: 35b8 f63e 720d 58bd 7d72 01bf 346d db3d
000000f0: ecf7 623e b318 bbbc b630 06bf 03fe 95be
00000100: 2645 54be a85a 33be eff3 13bd b0ee af3e
00000110: 4e07 3fbe c0a1 613e f4ea ab3e 0edb 03be
00000120: 8501 9cbe b839 c1be 7184 353e 825f 32be
00000130: 777b 7b3c f935 163d 3b87 09be 43e9 17bd
00000140: 5f60 9cbc 043b ba3c d3f1 a3bb a22e 62bb
00000150: 3d52 a4bd 1bed 14be 001f 05bd 32f8 8cbc
00000160: cdb6 87bd df2a fe3c 5602 f7bd e9f8 80bc
00000170: 41fa c0bd eaa1 b13c 4083 5f3d 1778 d5bc
00000180: e087 29be b629 d5bc a834 a7bd f380 0a3d
00000190: 8bea 4bbd 617b 443d 192e 2ebe 2f40 b4bc
000001a0: a5e9 1f3d 7c43 edbd 7cdc 38bd f6ed a3bd
000001b0: 839f a9bd 9fc8 9bbd 4000 03be e8bb 0d3d
000001c0: 4067 2cbe afdb 0ebe 59ed 76bd 3433 3e3d
000001d0: 9af9 30be 8095 c8bd 7bf0 0d3b 0581 39bd
000001e0: 1702 2fbe ff8f d0bd c33a 02bd 4c3f ddbd
000001f0: a923 dcbd 2f97 31bd 0b39 063d 4352 f9bb
00000200: 8617 04be ff0b 11bd 1f3e 9f3d 1fc4 ddbd
00000210: 2b06 403d aecf c5bb 6d38 c2bd 2e66 3f3d
00000220: 067b c4bc a9cf 16be e0e6 19be 1b02 3bbd
00000230: 53e9 18be 63ac 6a3c 5aea 1c3d a0db e3bd
00000240: ac6e 31be 2890 78bd ab2c 18be d058 b7bd
00000250: 98af 7bbd 9a0a 8abd 7213 823e bcb1 983e
00000260: 59f0 29be 453f 52bf 1ef5 e4be e082 14bd
00000270: af46 4b3e 0fa5 763f 54e8 37bc 5230 633f
00000280: ab55 fabc 1c82 12bf 49a8 3c3d f691 1abe
00000290: eea1 12bf 78af 0cbe edab 0d3e 63c2 71bd
000002a0: 6d90 003e 1841 3fbb e823 f3be 00b3 533d
000002b0: 73ad fdbd 40a2 bc3e 5b2f f5be feae c73c
000002c0: 3e1b 18bf 3d3e e8be 971e 5cbd 690f babc
000002d0: d310 ad3c 0b75 7e3e 6857 1cbe ffe3 443d
000002e0: 97b6 4cbd 4aef ed3e b9a8 c43d 13ef 06bf
000002f0: 9321 293e fe27 6abe 0435 dd3d b741 38bc
00000300: f52a 1bbf 55c5 2cbf 17eb e63c 02a1 913e
00000310: 91ad c03d c9c1 563e cff1 503e 32e4 adbc
00000320: 7152 ea3c a9ce 0d3e a3cd 1fbe 0cdb 653d
00000330: 9d51 02bf 621f c43e 7555 aa3e a6ab 973d
00000340: ac6a 42bf 866c 1d3d 1ebf a43d 06f5 903d
00000350: edde 32bf bace 7fbe 09f5 2dbf c7b4 fa3d
00000360: 3e51 35be 7349 9f3e 59ca 6cba cfd9 223e
00000370: 79d1 4b3e 14b9 8cbc 5b20 4cbe abbe e3be
00000380: 1de7 653e 512c 2cbc ffac 1abd 5176 20be
00000390: 4d97 25bf d42b 0c3f 2349 bbbd 0c08 e5bd
000003a0: bac0 283f 7774 4c3d 42d6 6abc c34e ee3e
000003b0: 5448 b6be 11e4 b9bd 4b69 80bf 9996 433f
000003c0: 3a6e bb3e d82a 833e 9eec 73be 35fa 33be
000003d0: 50b8 7b3e d42d 93bf 7b08 bd3e e156 cfbe
000003e0: ae03 a33e 0137 953e 2b65 603f 18dd 6bbf
000003f0: 9291 cbbe abde bc3d 4ab3 98bd 1030 dfbe

3.bias f4 [37]
-0.10408472 -0.10171704 -0.26507238 -0.43189564 -0.14334416 -0.069666214 -0.18839341 -0.044544995
-0.08428355 -0.016557612 -0.0413833 -0.13146907 0.14340344 -0.27434698 -0.28567162 -0.12189364
-0.110781655 -0.34391928 -0.08124439 -0.0107650915 -0.15313044 -0.12385244 -0.020900035 -0.20644706
-0.3177206 -0.058507577 -0.061041255 -0.00530698 0.014890596 -0.16634183 -0.08410979 -0.24537045
-0.076641604 -0.19725811 -0.09101046 -0.3060593 -0.10918832
00000000: 5f2a d5bd 0651 d0bd 91b7 87be 6d21 ddbe
00000010: d0c8 12be 29ad 8ebd 34ea 40be d074 36bd
00000020: db9c acbd d4a3 87bc 8981 29bd d49f 06be
00000030: 5ad8 123e 3577 8cbe 8d43 92be 5fa3 f9bd
00000040: 7ee1 e2bd 3016 b0be 7563 a6bd 1160 30bc
00000050: 3ace 1cbe 59a6 fdbd 8d36 abbc dc66 53be
00000060: 46ac a2be a4a5 6fbd 6506 7abd 2de6 adbb
00000070: b0f7 733c 8355 2abe c141 acbd 6442 7bbe
00000080: 46f6 9cbd 08fe 49be b163 babd ceb3 9cbe
00000090: 209e dfbd

5.weight f4 [18, 37]
0.07748018 -0.049169313 0.032097567 -0.18118052 -0.17974453 -0.20155002 0.08331582 0.020773351
-0.07787179 0.0603087 0.1120638 0.19840296 -0.07511674 0.19268306 0.052076433 -0.081285916
-0.11793651 -0.008341352 0.00092880544 0.028734209 0.18686202 -0.18002965 0.041861564 -0.06949651
-0.1695184 0.027883084 -0.06261769 0.120406896 0.12305145 -0.050353907 -0.082198516 0.09682974
0.04587176 -0.08633482 -0.19942348 -0.3428728 0.038293075 -0.00063333835 -0.08361604 0.26389277
2.0495222 0.24419948 -0.19089256 0.21939853 -0.28605846 0.046479896 -0.07764228 0.084669665
-0.012097173 -0.22037603 0.107183225 0.4672905 -0.07439056 -0.1630141 0.068804294 -0.057716113
0.20428152 0.011955937 -0.20529902 0.06284749 0.56971943 0.25264856 -0.054914385 0.048238587
-0.1804014 0.17892365 -0.023200538 0.089097075 0.6786392 -0.03427699 0.20693135 0.07318815
1.2879268 -0.23398021 0.18768644 -0.05308114 0.24814603 0.90840447 0.12279944 -0.039952632
0.016184451 -0.09363947 -0.043973405 -0.026035052 0.102004685 -0.013266023 0.05677826 0.12234449
0.228535 -0.009264217 0.17687145 0.0045120115 -0.1243363 0.0063469666 -0.055378627 -0.073790886
-0.05942496 0.21285437 -0.060746994 0.062326737 0.15378654 0.11333976 0.0025476182 -0.19023241
0.09457752 0.117992535 -0.07044853 0.111980654 -0.14408216 0.5882788 0.046579458 0.12641846
0.14426404 0.1380471 0.77619284 -0.06637105 0.058098286 0.13788351 0.10939761 0.11542878
0.102458075 -0.058613274 -0.013135761 -0.088704124 -0.09372709 0.31827638 0.07544979 0.10813121
-0.17990421 0.054270264 0.18328425 0.22750694 -0.08368259 0.0038298613 0.31229943 0.045075364
0.10835359 -0.07256314 0.011542009 -0.09205941 -0.1231652 -0.049303655 0.26311412 -0.033003207
0.038712908 0.043356366 0.17680694 -0.046231177 0.28510186 0.17870978 0.3658386 1.1641525
0.09840742 0.16467214 0.14123726 0.055197533 -0.06718434 0.04038604 0.040584378 -0.06292318
0.18865365 -0.06461127 0.20266703 -0.11593743 0.31605208 -0.10673645 0.17365018 -0.0152682755
-0.06667506 0.29260466 0.103775434 0.09979802 -0.100390024 0.018018493 0.13203764 0.10453935
-0.018885696 -0.06937403 0.15157913 -0.0762728 0.0172004 0.13541053 0.15712668 0.45357224
0.08732027 -0.12077867 0.04742401 -0.52680343 -0.061321583 -0.37862477 -0.15222113 -0.018229837
-0.80018765 0.061990246 -0.101797394 -0.0036431658 0.0855545 -1.6115553 -0.118345484 -0.13127202
-0.083335154 -0.28498837 0.41629827 -0.0011882203 -0.042584207 -0.07116305 -0.4311328 -0.052616093
-0.06258749 -0.10242867 0.033238817 -0.47430146 -0.040911905 -0.014083447 0.0030893018 0.07370619
0.030282348 -0.20342647 0.16660737 -0.08006933 -0.049094215 -0.06781812 -0.11710209 -0.15569012
0.03988815 -0.09290526 -0.109812066 0.012712778 0.104495354 -0.028242314 -0.0076294956 -0.0012714226
0.1623087 -0.13752785 -0.003682986 0.083373085 -0.13232368 -0.06516135 0.015750337 -0.022656664
0.057252407 0.0895956 0.0066328957 -0.17420645 -0.006649325 -0.111112796 -0.034162626 0.22016835
-0.07256119 0.011361583 0.1601427 -0.14477327 -0.018917294 -0.10554203 -0.08034673 -0.13105796
00000000: eead 9e3d c365 49bd bd78 033d 6387 39be
00000010: f30e 38be 2163 4ebe 7ca1 aa3d e02c aa3c
00000020: 3f7b 9fbd 4106 773d b581 e53d 252a 4b3e
00000030: ced6 99bd b54e 453e 194e 553d 3b79 a6bd
00000040: b288 f1bd 2baa 08bc 147b 733a 0164 eb3c
00000050: c258 3f3e b159 38be 0877 2b3d 3054 8ebd
00000060: 3b96 2dbe 116b e43c b43d 80bd e497 f63d
00000070: 6602 fc3d e63f 4ebd b257 a8bd ac4e c63d
00000080: 07e4 3b3d 4fd0 b0bd ab35 4cbe 068d afbe
00000090: 33d9 1c3d 9e06 26ba e33e abbd f41c 873e
000000a0: 5f2b 0340 6e0f 7a3e 5779 43be 02aa 603e
000000b0: 4176 92be b461 3e3d ea02 9fbd 4a67 ad3d
000000c0: 3933 46bc 41aa 61be e182 db3d b340 ef3e
000000d0: 145a 98bd 2bed 26be 44e9 8c3d bb67 6cbd
000000e0: 2d2f 513e d6e2 433c e839 52be 2fb6 803d
000000f0: 22d9 113f 275b 813e e8ed 60bd d395 453d
00000100: 25bb 38be c337 373e 0e0f bebc 8778 b63d
00000110: 4cbb 2d3f 0766 0cbd d0e5 533e abe3 953d
00000120: c9da a43f 8298 6fbe e030 403e 9c6b 59bd
00000130: fe19 7e3e 328d 683f 467e fb3d 5fa5 23bd
00000140: 4195 843c 0dc6 bfbd 751d 34bd 7647 d5bc
00000150: d5e7 d03d bc59 59bc 5290 683d bf8f fa3d
00000160: 1405 6a3e f1c8 17bc ca1d 353e 7fd9 933b
00000170: 08a4 febd 37fa cf3b b3d4 62bd ad1f 97bd
00000180: 9667 73bd 7ff6 593e d7d1 78bd 524a 7f3d
00000190: 387a 1d3e ad1e e83d f1f5 263b 49cc 42be
000001a0: dcb1 c13d 12a6 f13d 5247 90bd 1d56 e53d
000001b0: 468a 13be 7099 163f 1aca 3e3d d773 013e
000001c0: f4b9 133e 385c 0d3e 93b4 463f 8ced 87bd
000001d0: 78f8 6d3d 5631 0d3e db0b e03d ed65 ec3d
000001e0: 8ad5 d13d 7914 70bd 6037 57bc 82aa b5bd
000001f0: fdf3 bfbd 1ff5 a23e 6b85 9a3d e573 dd3d
00000200: cf38 38be 7f4a 5e3d deae 3b3e 94f7 683e
00000210: c761 abbd 69fe 7a3b b6e5 9f3e f2a0 383d
00000220: 7de8 dd3d fc9b 94bd b21a 3d3c a589 bcbd
00000230: 093e fcbd a1f2 49bd e5b6 863e 5f2e 07bd
00000240: 6d91 1e3d 7296 313d e10c 353e e75c 3dbd
00000250: dff8 913e b2ff 363e 324f bb3e f302 953f
00000260: d489 c93d d09f 283e 80a0 103e cf16 623d
00000270: f197 89bd d56b 253d ce3b 263d dedd 80bd
00000280: 6c2e 413e ea52 84bd f287 4f3e 9a70 edbd
00000290: 94d1 a13e a498 dabd 5ad1 313e ca27 7abc
000002a0: ef8c 88bd 47d0 953e 3788 d43d e862 cc3d
000002b0: 4999 cdbd 859b 933c e034 073e ba18 d63d
000002c0: 2db6 9abc f913 8ebd 8f37 1b3e ea34 9cbd
000002d0: dae7 8c3c 0fa9 0a3e d1e5 203e 9f3a e83e
000002e0: f8d4 b23d cf5a f7bd ae3f 423d 97dc 06bf
000002f0: 572c 7bbd 1bdb c1be dbdf 1bbe bd56 95bc
00000300: 19d9 4cbf 7ce9 7d3d 277b d0bd 2ec2 6ebb
00000310: 3337 af3d 7247 cebf 1e5f f2bd 2c6c 06be
00000320: 9fab aabd ffe9 91be 0c25 d53e 0fbe 9bba
00000330: c76c 2ebd efbd 91bd 70bd dcbe f983 57bd
00000340: df2d 80bd 1fc6 d1bd 6d25 083d a4d7 f2be
00000350: 3e93 27bd 42be 66bc e275 4a3b 45f3 963d
00000360: b012 f83c 074f 50be 1f9b 2a3e 64fb a3bd
00000370: 0417 49bd 3ae4 8abd 38d3 efbd 3b6d 1fbe
00000380: c261 233d 1d45 bebd 26e5 e0bd 4149 503c
00000390: a901 d63d 6d5c e7bc d900 fabb dda5 a6ba
000003a0: 4034 263e 1ad4 0cbe 405e 71bb 82bf aa3d
000003b0: dc7f 07be 5073 85bd da06 813c 789a b9bc
000003c0: 8081 6a3d e67d b73d c358 d93b 2d63 32be
000003d0: 95e2 d9bb 1b8f e3bd 1cee 0bbd d073 613e
000003e0: f69a 94bd ef25 3a3c 73fc 233e 723f 14be
000003f0: 71f8 9abc 6b26 d8bd d48c a4bd 0f34 06be

5.bias f4 [18]
-0.10166212 -0.18651398 -0.16290863 -0.13257182 -0.18464747 0.99024314 -0.02886174 0.918445
1.3158878 1.27153 -0.23471296 -0.08307839 -0.19771826 -0.19551489 -0.05799372 -0.10078056
-0.09993033 -0.06789787
00000000: 3b34 d0bd 85fd 3ebe 85d1 26be e8c0 07be
00000010: 3a14 3dbe 9380 7d3f 756f ecbc 361f 6b3f
00000020: 036f a83f 7fc1 a23f 9858 70be 0125 aabd
00000030: a876 4abe 0e35 48be d38a 6dbd 0a66 cebd
00000040: 46a8 ccbd 0a0e 8bbd

7.weight f4 [1, 18]
0.04614508 0.521979 0.046540998 0.0051500457 0.24155435 -1.1540985 0.19485565 -0.9229348
-0.9526168 -1.1167318 0.03966058 0.05248756 0.25087723 -0.14218716 -0.17244002 0.07215865
0.074601196 0.008396663
00000000: a002 3d3d 6aa0 053f c6a1 3e3d b7c1 a83b
00000010: 065a 773e 80b9 93bf 3d88 473e 7445 6cbf
00000020: b2de 73bf 11f1 8ebf 2273 223d 32fd 563d
00000030: fb72 803e 8399 11be 1e94 30be eac7 933d
00000040: 83c8 983d 2892 093c
